AI-Chatbot-DL-NLP-master/data.pth (torch, 5546 bytes, 6 tensors)

l1.weight f4 [8, 50]
00000000: e829 183e 305f 3abe fe9f 6abe 80f7 18bf
00000010: 8d87 393f e66b 7bbf 40f1 d5be 3343 73be
00000020: 7e9f 47be 8597 ca3e 6ce5 923e 5dc8 76ba
00000030: 38ec 133f 38fa 18bf f39a 67bf 0394 c93e
00000040: 060a 61be 4a72 e03c 52c7 f83e 7768 8fbe
00000050: 56db 1d3f 2617 083f 08d5 9a3f b411 aa3e
00000060: 2c73 913e 824c 04bf b0c9 d8be 6790 553f
00000070: 36b1 fd3b 60e2 6dbc f9de 483d 3df8 2ebe
00000080: dcf8 18bf 475d be3d 4002 77bf 6c33 603e
00000090: 03e3 8bbd 8edd 883e 4995 233d f9eb 0c3f
000000a0: df12 23be 510e 19bf 098a eebe 21f0 18bf
000000b0: 481b 44bc cfe6 0cbe 9ae4 f9be 2e04 19bf
000000c0: 35fd 0d3f 2734 48bb dbae 9e3e dc95 6b3e
000000d0: 876b 7a3e ef62 d63d 9c12 a1bc 9403 633e
000000e0: 4bbe b93d 1b02 673f 95c2 e7be a844 aabd
000000f0: c006 8bbe 9182 03bf 6388 af3f a246 4a3f
00000100: 6c02 6ebf 1624 62be 97cd 5c3f 80f2 49bb
00000110: d07f a5be b856 063f 583b 60be 3a36 e93d
00000120: 1ad6 0d3e 0722 5abe 1225 b7bd 708a 413e
00000130: 4b79 083f 76ac 81bf 1ff2 1d3f 6c43 313e
00000140: a3f2 0bbe bd94 173d 0819 aa3c 5d29 c93d
00000150: aab7 5ebf 4231 01bd acf3 193f e9c1 90bf
00000160: 5841 003d 54e4 41be 08cc b73c 6d0f 7f3f
00000170: f25f c93e 91fb 713f 0443 a0be 5432 a6be
00000180: 148f 12be 1973 213f 9397 b8be e152 863e
00000190: ecc3 3c3e f16b 333e baa4 bb3e 20a2 dbba
000001a0: 6b29 ff3e 6cd1 2c3f b73b f8bd 0b3d 9abe
000001b0: 83fd f8be e2f0 0f3e d4ef c13e b296 0cbf
000001c0: f930 91be cdfa 853f bc65 503f 7613 033f
000001d0: 82f6 bcbe 5fa6 67bd 9d23 d83e ac32 0bbe
000001e0: 2d72 093f 6fcb d03e 91b3 b8be e36c 643e
000001f0: 815f 173e a1e4 173f 3b17 703d 5de2 1cbf
00000200: 6588 033e b12c ed3d 471d 31be 0e02 c13e
00000210: b402 33bd 8313 9c3e 0f56 613f 89cb b43e
00000220: 1915 d739 dcc4 f5be 676f 5abd 62ac 753e
00000230: beea f63e 652a 2e3b d175 0bbc f3e9 30be
00000240: 2e26 053e 96c5 a13d 4cea 593f 699c 4e3f
00000250: 4608 0a3f 3f59 2ebe e805 f83d 5605 8cbd
00000260: 63ef 9b3e 734d a7bd e930 a93e bb7a 5c3f
00000270: 72a2 a73d a38b fbbe c1ea c73e 0afa ea3e
00000280: 3e04 9a3e 2fa2 053e b643 b7be 73f0 b6be
00000290: ca67 6b3f 7dc9 4e3e 58fc febe 133e 033e
000002a0: 439a f53e 3235 89be 442c c53e feca 153f
000002b0: 89d1 683e 17de 403e 6737 4d3e a1a5 2e3f
000002c0: a01d 12be 0f58 433f 1d2a 56be 311d 16be
000002d0: 53a9 673e 7a12 cf3e e449 70be 0c44 023f
000002e0: 230e 6b3f 189d ef3e 1225 7fbe 5167 a63f
000002f0: fb92 d53d 28de fe3e 400d a43e 72dd 1bbf
00000300: 1180 cfbe ed43 04bf 4f8a a63e f8fc 3f3e
00000310: da4b 1a3f c568 e4be 5f7f 9e3e 15d9 cf3d
00000320: 1ced 483e 182f 543e e1a1 8e3e 1eb3 093f
00000330: a770 62be 6ab1 863f 0526 4ebf 75d6 10bf
00000340: 0567 e43e a732 683e e433 a8be 7dd6 aa3e
00000350: 3ffa fcbe 1b7c 15bf 9cec 01bf 64d2 0abe
00000360: 9944 08bf ade4 983e 6f79 f2be a2fc aa3e
00000370: ea6d acbe be05 9ebb b9aa a43f d5ac d0bd
00000380: a29d 743e 95de 303f 5c71 363d 8c1d 843f
00000390: dbb0 b2be 8f42 cf3d be75 ab3e 016c d63e
000003a0: a229 043f ae66 e53e a520 f7be 76c3 5c3e
000003b0: 602a 89be 17aa 623f 7192 f83d 1774 0e3f
000003c0: 7f24 ef3e 7608 1f3f 647e b63e 1a02 0a3f
000003d0: b93f e33e db65 c5be 42a3 643f 4c86 15bf
000003e0: 6db2 e7be 7b50 2e3e 424c a73e 2195 83be
000003f0: b74a 93be 5afa 953f 21af 1e3f 37fe 18bf
0.14859736 -0.18200374 -0.22912595 -0.59752655 0.7247246 -0.98211515 -0.41785622 -0.23756103
-0.19494435 0.39568725 0.2869066 -0.0009414012 0.57782316 -0.59756804 -0.9047081 0.39370736
-0.2197648 0.027398247 0.4858957 -0.28009388 0.61662805 0.5316032 1.2096262 0.3321663
0.28408182 -0.5167924 -0.42341375 0.83423465 0.0077420725 -0.014519304 0.04904077 -0.17086883
-0.5975473 0.09295135 -0.9648781 0.21894616 -0.068304084 0.26731533 0.03993729 0.55047566
-0.15925168 -0.5978747 -0.46589687 -0.5974141 -0.011969395 -0.13759921 -0.48807222 -0.59772
0.5546449 -0.0030548663 0.3099278 0.23006386 0.24455081 0.10468089 -0.019662194 0.22169334
0.09069499 0.9023759 -0.45265642 -0.083138764 -0.27153587 -0.51371104 1.3713497 0.7901403
-0.92972445 -0.22084078 0.86251205 -0.0030814707 -0.32324076 0.5247607 -0.21897638 0.11387296
0.13851205 -0.21302043 -0.089426175 0.18900466 0.5331008 -1.0130756 0.6169757 0.17310876
-0.13666777 0.037007082 0.020763889 0.098223425 -0.86999 -0.031541117 0.6013744 -1.1309177
0.031312317 -0.18934757 0.022436157 0.9963291 0.39331013 0.94524485 -0.3130113 -0.32460272
-0.14312392 0.6306625 -0.36053142 0.26235107 0.18434113 0.17521645 0.36649114 -0.0016756691
0.49836287 0.6750705 -0.12120765 -0.30124697 -0.48630914 0.14056733 0.37878287 -0.5491744
-0.28357676 1.0467163 0.81405234 0.5120157 -0.3690682 -0.05655515 0.4221467 -0.13593549
0.53689843 0.40780208 -0.36074498 0.22307162 0.14782526 0.59333235 0.058615904 -0.612829
0.12844999 0.1158079 -0.17296325 0.3769688 -0.04370375 0.30483636 0.8802194 0.35311535
0.00041023715 -0.48001754 -0.053328898 0.2399154 0.4822597 0.0026575562 -0.008511976 -0.17276745
0.13002846 0.07899015 0.85123134 0.8070741 0.53918874 -0.17026232 0.121105015 -0.06836955
0.30456075 -0.08169069 0.33045128 0.8612477 0.08185281 -0.49129972 0.3904629 0.4589389
0.30081362 0.1305015 -0.35793847 -0.35730323 0.91955245 0.20194049 -0.49801898 0.12816648
0.47969255 -0.26798397 0.38510334 0.58512866 0.22736181 0.1883472 0.20040666 0.6822148
-0.14269114 0.7630624 -0.20914502 -0.14659573 0.22623186 0.40443784 -0.23465687 0.5088508
0.91818446 0.4679954 -0.24916485 1.300028 0.10428425 0.49778867 0.3204136 -0.60884774
-0.40527394 -0.51666147 0.32527396 0.18748844 0.6027199 -0.44611183 0.3095655 0.10148827
0.196217 0.2072109 0.2785788 0.53788936 -0.22113286 1.0522892 -0.80526763 -0.56577235
0.44609848 0.22675572 -0.3285209 0.33366767 -0.49409673 -0.58392495 -0.5075166 -0.1355682
-0.5322967 0.29861966 -0.4735827 0.3339587 -0.33677608 -0.004822462 1.28646 -0.10189215
0.23888257 0.69089633 0.0445417 1.0321517 -0.34900555 0.10120117 0.33488268 0.41879275
0.51626027 0.448049 -0.48267093 0.21558937 -0.26790142 0.88540787 0.121373065 0.5564589
0.46707532 0.62122285 0.35643303 0.53909457 0.44384554 -0.38554272 0.8931161 -0.58408046
-0.45253316 0.17022888 0.32675368 -0.25699714 -0.2876794 1.1717026 0.61985976 -0.597629

l1.bias f4 [8]
00000000: 44f1 183f 482f 823f 68a7 9f3f b0b1 9f3f
00000010: 6e7f 153f 8d1d 583f 067f 6e3f d053 093f
0.5974314 1.0170679 1.2472963 1.2476101 0.5839757 0.8442009 0.9316257 0.5364351

l2.weight f4 [8, 8]
00000000: 3e17 2a3f ec90 b2bf 46ba 95bd f02b a03f
00000010: 5aba 963f 38f9 ebbe 45ab 753f 0283 c13c
00000020: 37fd dcbf 43e8 1440 1596 df3f fdc7 e03e
00000030: 0f13 96bf 0d11 91be adba 9c3f 9bc0 0e3e
00000040: 25e1 c8be 9d2d b5bf 8e63 b53f 8892 863f
00000050: 266f 8bbf 36ec 2d3f 1e42 ab3f 9b79 b93e
00000060: b094 d93f 94fe 1ebf e5db 283f 31e9 463f
00000070: 12b8 02bd 9d5a 98bf 9cd4 473f 52ec b2bf
00000080: 5fbc e63f 9343 0f3e b21d 443f ec89 9b3f
00000090: e45b 603f e19b 0940 7f71 dbbf 8bbc 3bbf
000000a0: 66aa d8bf 1993 33be a955 923f 6aab 4a3f
000000b0: d127 c53f fed0 59bf 61a8 32bf de70 0040
000000c0: c508 8c3f e825 a0bd 1e4f a03f 4cfe 4a3f
000000d0: c86e 793f 9a13 88bf 6a62 65be 374a 7cbf
000000e0: 6c57 8b3e e21a 6dbe 17fa 753e c7ac 46be
000000f0: 2cab febd a7e4 7fbe a768 4cba 9e5f 89be
0.66441715 -1.3950477 -0.073109195 1.2513409 1.177562 -0.46088576 0.9596446 0.02362204
-1.7264775 2.3266761 1.7467676 0.4390258 -1.1724566 -0.2833332 1.2244469 0.1394066
-0.39234272 -1.4154545 1.4171007 1.0513468 -1.0893295 0.67938554 1.3379552 0.3622559
1.6998501 -0.62107205 0.6596053 0.7769957 -0.031913824 -1.1902653 0.7805879 -1.3978369
1.8026236 0.13990621 0.7660781 1.2151465 0.87640214 2.150139 -1.7144011 -0.7333457
-1.6927001 -0.17536582 1.1432391 0.7916781 1.5402776 -0.8508452 -0.69788176 2.0068889
1.0940176 -0.0781973 1.2524145 0.79294276 0.97434664 -1.0630982 -0.22400823 -0.9855074
0.27215135 -0.23154786 0.24021183 -0.19401847 -0.12434992 -0.24989568 -0.0007797577 -0.26830763

l2.bias f4 [8]
00000000: bf97 6dbe 5a9c 693f d914 503e 3ae9 2f3f
00000010: fbab 463f da81 cc3e ed90 713e 67bc 0bbe
-0.23202418 0.912542 0.20320453 0.6871525 0.7760617 0.3994282 0.23590441 -0.13646089

l3.weight f4 [13, 8]
00000000: 409a cfbf 2d27 d5be e27c 6abe 97a5 63bf
00000010: 854e 2d3f 29ba 683f dcc7 3cc0 c6a6 453e
00000020: 7bf0 82be 7de4 15bf c8ae e0be bd33 bcbe
00000030: 0033 75be 5181 253f 7404 413f 1fd1 50bb
00000040: a954 a9be 8f0a 0f3f 0d8b 753f 6617 c4bf
00000050: d12a 583e 0c0d e3bf 761b 3bc0 2ba9 77bd
00000060: 30db 5d3f 0bb8 a9bf f452 203f 2240 c3be
00000070: 1300 83bf 4670 103f f973 ebbf 0782 4a3d
00000080: f043 c4bf a0bf 303f fcd6 d3bf 600c aabf
00000090: 11bd 693f 00cb adbf f389 3ebf 8ffa 3cbe
000000a0: a325 553c 181e 14bd b199 3e3f 8487 953e
000000b0: 6149 8cbf e8d7 d7be 53f9 19be 9433 cf3d
000000c0: cf1a d1bf 56e9 8e3f 994b 05bf 08e8 4f3f
000000d0: cc02 90bf 18db 00c0 1d9c 52be d776 793d
000000e0: 2037 59bf c6e9 a4be 4975 003f f999 2d3f
000000f0: 8158 d53e b2d2 e3bf 5b9c 42bc 4490 12be
00000100: 7ee6 1dbd cb43 cbbf 0079 03c0 7b34 013e
00000110: 8ef8 7d3f 0f1c 8bbf 192e 0b3f fdaa 503e
00000120: 8c6e 653f e1e5 cabf e46e 9ebe 3775 413f
00000130: 564a f6be ea69 00bf 785f 483f 95a0 1a3e
00000140: 7073 9e3e 0d7d 07c0 59aa a83e c5f3 8abf
00000150: f1e7 173f 0342 b73e 83c4 29bf fd9a 433e
00000160: bc37 b8bf 21e6 313f 08d2 1ac0 a4cf 7ebf
00000170: f3ae 91bf 3ca5 873f cc89 53bf b40b 973d
00000180: 3bdc edbf 0a0f 2e3f 112c 513f 24fb a6bf
00000190: 931b bbbf fac3 3abc 08c8 e5bf 342d bfbd
-1.6218948 -0.4163145 -0.22899202 -0.88924545 0.67697936 0.9090906 -2.9496984 0.193019
-0.25574097 -0.5855177 -0.43883348 -0.36758223 -0.23945236 0.64650446 0.7539742 -0.0031862927
-0.33072403 0.55875486 0.959153 -1.5319641 0.21110083 -1.7738357 -2.923551 -0.060464066
0.8666258 -1.325929 0.62626576 -0.38134867 -1.0234398 0.56421316 -1.8394767 0.04944041
-1.5333233 0.69042397 -1.6549983 -1.3285027 0.9130412 -1.3577576 -0.74429244 -0.18454956
0.013009462 -0.036161512 0.74453264 0.29204953 -1.0959893 -0.4215691 -0.15036516 0.101172596
-1.6336306 1.1164958 -0.5206848 0.81213427 -1.1250854 -2.0133724 -0.20567365 0.06090435
-0.8484974 -0.32209605 0.5017896 0.6781307 0.41669086 -1.7798674 -0.011878098 -0.14312845
-0.038549893 -1.5880064 -2.0542603 0.12617676 0.9920739 -1.0867938 0.54367214 0.20377727
0.89621806 -1.5851403 -0.30943978 0.7556948 -0.4810359 -0.5016161 0.78270674 0.1510032
0.30947447 -2.1170075 0.32942465 -1.0855643 0.5933829 0.3579255 -0.6631548 0.19102092
-1.4392009 0.69491774 -2.4190693 -0.99535584 -1.1381515 1.05973 -0.82632136 0.07375279
-1.8582834 0.679917 0.81707865 -1.3045392 -1.461779 -0.0113992635 -1.795167 -0.09334794

l3.bias f4 [13]
00000000: e13e 023e 1ea1 b8be 30a4 bebc 6667 bcbd
00000010: 3d1e 333e 19a8 10bf 02d7 913e 687f adbc
00000020: 2762 273e 202d 93bd 1181 a8be 023d ff3e
00000030: a931 c5be
0.12719299 -0.36060423 -0.02327165 -0.09199409 0.17492004 -0.56506497 0.2848435 -0.021178916
0.16346036 -0.07186341 -0.3291097 0.49851233 -0.3851445
